train/model.tflite (tflite, 19544 bytes, 8 tensors)

sequential/conv2d/Conv2D/ReadVariableOp f4 [1, 4, 3, 8]
-0.06082478 0.38074595 0.13460124 -0.015746582 0.042969692 0.19398394 0.106263034 0.15537006
-0.28003675 -0.12269601 -0.2645667 0.15080352 0.014285012 -0.1742093 0.122573785 0.05141667
0.50047266 -0.3923345 -0.13219716 0.036088403 0.0798956 -0.19495827 -0.10874807 -0.18132895
0.0930749 0.21202977 0.2800093 0.22097166 0.02283823 -0.09472357 0.08177776 -0.026210109
-0.23448895 -0.09227039 -0.05398382 -0.1802151 0.07973499 -0.04828421 0.027985146 -0.021185849
0.049221642 -0.041216116 -0.04244432 -0.36983162 0.1051476 0.096453436 -0.08899738 0.15417531
-0.13478838 -0.14901948 0.28229773 0.11993794 0.15754597 0.06782279 0.106207944 -0.036932394
0.124172345 0.13854282 -0.08888922 -0.20170534 -0.06280457 -0.22322375 -0.07358398 0.01736895
-0.40450943 0.05885475 0.05069028 -0.24973461 0.0022262137 -0.31771025 -0.25974095 0.14949808
-0.11619923 -0.30111325 0.33622554 0.08815366 0.08492357 0.18588994 0.08891617 0.0062610693
0.35838243 -0.09288281 0.22479747 -0.026099445 -0.03059606 -0.27170393 -0.19346792 -0.004005426
-0.44375876 -0.36293837 0.027725251 -0.12903783 -0.032376457 0.108725354 -0.19826357 0.19900727
00000000: 6823 79bd 22f1 c23e e8d4 093e fafe 80bc
00000010: fd00 303d baa3 463e 6fa0 d93d 5419 1f3e
00000020: fa60 8fbe 0c48 fbbd 4975 87be 3d6c 1a3e
00000030: af0b 6a3c ec63 32be f707 fb3d 499a 523d
00000040: fa1e 003f 11e0 c8be b15e 07be 6fd1 133d
00000050: 4ea0 a33d 24a3 47be 4fb7 debd 4cae 39be
00000060: 0e9e be3d 551e 593e 615d 8f3e 6546 623e
00000070: 3d17 bb3c 6efe c1bd 197b a73d 95b6 d6bc
00000080: df1d 70be 42f8 bcbd 231e 5dbd 4f8a 38be
00000090: 194c a33d aac5 45bd 1b41 e53c f28d adbc
000000a0: a29c 493d 3bd2 28bd 18da 2dbd 925a bdbe
000000b0: a057 d73d 6189 c53d 4244 b6bd 22e0 1d3e
000000c0: f705 0abe 9098 18be 5489 903e 06a2 f53d
000000d0: bb53 213e ade6 8a3d 8d83 d93d 6c46 17bd
000000e0: 124e fe3d 2bde 0d3e 8d0b b6bd d88b 4ebe
000000f0: af9f 80bd c494 64be 33b3 96bd 5449 8e3c
00000100: dc1b cfbe ae11 713d 9ca0 4f3d 6eba 7fbe
00000110: abe5 113b ebaa a2be c4fc 84be 0616 193e
00000120: ddf9 edbd 842b 9abe c125 ac3e e889 b43d
00000130: 69ec ad3d ef59 3e3e ae19 b63d a829 cd3b
00000140: e77d b73e 5839 bebd 4f31 663e 81ce d5bc
00000150: 97a4 fabc c71c 8bbe 741c 46be f33f 83bb
00000160: 5934 e3be 0fd3 b9be 1120 e33c 7e22 04be
00000170: 2d9d 04bd 66ab de3d 9b05 4bbe 90c8 4b3e

sequential/conv2d/Conv2D_bias f4 [8]
0.035634935 -0.1026123 -0.8226639 0.18340316 -2.463064 -0.20041513 -0.4950547 -3.0824988
00000000: f0f5 113d 6626 d2bd 1a9a 52bf 0ace 3b3e
00000010: d7a2 1dc0 a039 4dbe cf77 fdbe a947 45c0

sequential/conv2d_1/Conv2D/ReadVariableOp f4 [16, 4, 1, 8]
-0.07135343 0.22475629 -0.12610114 -0.010956987 -0.39111075 0.17971867 0.054668695 -0.16267183
0.12095585 0.09052314 -0.14546847 0.08573147 -0.051496223 -0.04558908 -0.24956556 0.3874894
-0.4287782 -0.1129517 -0.19424704 -0.064864725 -0.10525086 -0.033151466 -0.22108187 -0.09185556
-0.5359752 -0.17110229 -0.063245095 -0.08790331 -0.09175976 0.42253822 -0.24338344 -0.06630722
0.47585598 0.44960845 -0.27933586 0.07250065 -0.25620425 -0.14830014 -0.25186965 -0.015645849
0.18259749 0.22474445 -0.21052629 0.05082469 0.09090983 -0.16688894 -0.10082872 -0.006813336
0.049191456 0.32753885 -0.11979786 -0.21464898 0.008799993 -0.22523686 -0.028482841 0.20929193
-0.3302597 -0.59026796 0.37361228 -0.231426 0.08816332 -0.7161658 -0.14633724 -0.07600291
-0.6094813 -0.33633587 -0.038621947 -0.3442467 0.07782369 0.3251816 -0.19378588 -0.0477552
-0.39392763 -0.2899482 -0.026058936 -0.56945086 -0.04691013 0.023349708 0.0437941 0.028594552
-0.44710907 -0.5856636 -0.059168406 -0.53637916 0.012192703 -0.08144133 -0.25618303 -0.08115197
-0.50073814 -0.7935387 0.097581364 -0.6085959 -0.053934403 0.28179044 0.14604695 -0.051076535
-0.2168676 -0.0529404 -0.03011353 0.067018665 -0.10636719 -0.09847727 -0.107239924 0.04385843
-0.16048399 0.093277685 -0.24490097 -0.046215665 -0.014730653 0.4820266 -0.30936757 0.106075406
-0.13802539 0.22550054 -0.11598362 0.1551459 0.09634966 -0.9808855 -0.19753435 0.1403231
0.058286913 -0.5007171 -0.3194813 0.019077295 -0.07699546 -0.47856188 -0.5756108 -0.4150878
-0.09425031 -0.1695365 0.3190046 -0.15376154 0.05950017 0.05028904 -0.135951 -0.07365196
-0.06066286 -0.2252359 -0.057309687 -0.07574921 0.048013855 0.03774036 0.14009158 -0.11455873
-0.112451516 -0.13994996 0.09273503 -0.16325128 -0.09161722 -0.060811162 -0.10991954 -0.068579406
-0.056615476 -0.4085957 0.25819096 -0.14851125 -0.14580385 -0.100608036 -0.08185464 -0.085244216
0.24790537 0.19937274 0.030190011 -0.25847864 0.04793112 -0.4056792 -0.04467506 -0.022932319
0.0385985 -0.21912523 0.18666005 0.10095745 0.13575198 -0.70381916 0.025294973 0.24684295
-0.3618427 -0.16492298 0.0064107645 -0.1744293 -0.012657228 -0.7511093 -0.006907205 0.0043839864
0.021741735 -0.021398086 -0.09272067 0.103748396 -0.12591788 0.029202264 0.07182548 0.01480472
-0.13069631 -0.14968437 -0.019705128 0.18202445 0.120844975 -0.16517664 0.30584523 0.5664556
0.3613214 -0.03618695 -0.025633613 0.0064578447 0.07387754 -0.25575083 0.24568406 -0.15593325
0.079242885 -0.19376403 -0.1541387 -0.1028965 -0.04832965 -0.30135128 0.11265633 -0.33882982
-0.023097586 -0.04386094 -0.12573446 0.06973621 -0.5100763 -0.06604648 -0.22146812 -0.3817651
0.034791887 0.1991648 -0.33549353 0.08383865 -0.33145115 0.015425059 0.14417523 -0.028924396
0.09115706 0.289447 -0.02689517 -0.02114036 -0.23236066 0.13210341 -0.18782853 0.10467207
0.26109725 0.44453958 -0.2914657 0.16543165 -0.07602133 0.08892556 -0.09107577 -0.066286616
0.099732086 -0.00515881 0.062439695 -0.10124662 -0.19477136 -0.058617603 0.03882407 -0.040108137
00000000: bf21 92bd 8326 663e a820 01be ef84 33bc
00000010: ab3f c8be 2c08 383e 48ec 5f3d 7293 26be
00000020: b3b7 f73d 3264 b93d b0f5 14be fb93 af3d
00000030: b4ed 52bd 9dbb 3abd 1d8e 7fbe 0365 c63e
00000040: d188 dbbe 3953 e7bd b2e8 46be ccd7 84bd
00000050: c38d d7bd d5c9 07bd 4963 62be c51e bcbd
00000060: ac35 09bf 7035 2fbe a586 81bd a706 b4bd
00000070: 8bec bbbd ee56 d83e 8239 79be 14cc 87bd
00000080: 65a3 f33e 1433 e63e 1c05 8fbe 397b 943d
00000090: 342d 83be fedb 17be 0ff5 80be b92b 80bc
000000a0: d6fa 3a3e 6923 663e 3494 57be 8d2d 503d
000000b0: ef2e ba3d efe4 2abe 4a7f cebd 6842 dfbb
000000c0: fb7c 493d 2cb3 a73e 9558 f5bd f1cc 5bbe
000000d0: d92d 103c 7ea4 66be d954 e9bc a050 563e
000000e0: cd17 a9be cd1b 17bf 1c4a bf3e f0fa 6cbe
000000f0: f98e b43d a456 37bf 6ed9 15be 6aa7 9bbd
00000100: f706 1cbf 3734 acbe 0c32 1ebd 1a41 b0be
00000110: 0762 9f3d 347e a63e ce6f 46be f59a 43bd
00000120: e2b0 c9be 1774 94be 8d79 d5bc 88c7 11bf
00000130: d624 40bd e347 bf3c 7161 333d 1f3f ea3c
00000140: 7beb e4be 0dee 15bf 925a 72bd 2550 09bf
00000150: e7c3 473c b6ca a6bd 6c2a 83be 0133 a6bd
00000160: 6030 00bf 5a25 4bbf bdd8 c73d f1cc 1bbf
00000170: 52ea 5cbd d646 903e 558d 153e a135 51bd
00000180: 8a12 5ebe 08d8 58bd a6b0 f6bc 1541 893d
00000190: 0bd7 d9bd 73ae c9bd 9ba0 dbbd e6a4 333d
000001a0: ea55 24be 5f08 bf3d 52c7 7abe a34c 3dbd
000001b0: d658 71bc 31cc f63e 6d65 9ebe 103e d93d
000001c0: 8756 0dbe 9de9 663e d288 edbd 91de 1e3e
000001d0: f852 c53d 501b 7bbf 7246 4abe dcb0 0f3e
000001e0: 42be 6e3d ff2e 00bf 0e93 a3be fd47 9c3c
000001f0: ccaf 9dbd 1006 f5be 3b5b 13bf 6386 d4be
00000200: 4e06 c1bd fa9a 2dbe 9254 a33e aa73 1dbe
00000210: 73b6 733d e1fb 4d3d bd36 0bbe d7d6 96bd
00000220: 9e79 78bd 3da4 66be 90bd 6abd 6722 9bbd
00000230: 2daa 443d a395 1a3d 2b74 0f3e c49d eabd
00000240: fb4c e6bd 0b4f 0fbe ddeb bd3d 582b 27be
00000250: cfa1 bbbd 2015 79bd 7f1d e1bd 5c73 8cbd
00000260: a1e5 67bd 7533 d1be 9b31 843e 5513 18be
00000270: 9b4d 15be 960b cebd 68a3 a7bd 8594 aebd
00000280: e8da 7d3e 5e28 4c3e 0b51 f73c 5057 84be
00000290: 6c53 443d 2fb5 cfbe 32fd 36bd 8fdc bbbc
000002a0: 7619 1e3d 5d62 60be d023 3f3e c8c2 ce3d
000002b0: 9102 0b3e 7e2d 34bf 6737 cf3c 66c4 7c3e
000002c0: 7243 b9be 92e1 28be 6411 d23b 989d 32be
000002d0: 4360 4fbc b348 40bf d655 e2bb 8ba7 8f3b
000002e0: b91b b23c 0a4b afbc 56e4 bdbd 0a7a d43d
000002f0: 9ef0 00be 9639 ef3c 3d19 933d 7f8f 723c
00000300: 41d5 05be dc46 19be a66c a1bc 9e64 3a3e
00000310: 927d f73d 1124 29be bf97 9c3e 3c03 113f
00000320: 1eff b83e c438 14bd 95fd d1bc 549c d33b
00000330: 1c4d 973d c6f1 82be 9a94 7b3e f7ac 1fbe
00000340: 184a a23d 146a 46be 89d6 1dbe 66bb d2bd
00000350: 50f5 45bd b74a 9abe 5db8 e63d 1a7b adbe
00000360: 2637 bdbc 87a7 33bd 89c0 00be dcd1 8e3d
00000370: 5c94 02bf 6043 87bd 8ac8 62be b776 c3be
00000380: f081 0e3d dbf1 4b3e cfc5 abbe 99b3 ab3d
00000390: f7b3 a9be 63b9 7c3c aca2 133e dbf2 ecbc
000003a0: 8db0 ba3d 6632 943e 4253 dcbc 8c2e adbc
000003b0: f4ef 6dbe 1e46 073e 1f56 40be 4f5e d63d
000003c0: 8aae 853e b19a e33e fe3a 95be ea66 293e
000003d0: 12b1 9bbd 9b1e b63d ef85 babd 47c1 87bd
000003e0: 5640 cc3d 3c0b a9bb c4c0 7f3d 635a cfbd
000003f0: 2572 47be 0319 70bd fd05 1f3d 6e48 24bd

sequential/conv2d_1/Conv2D_bias f4 [16]
-0.019529145 -0.23193653 -0.23707868 0.27250084 -0.23193812 -0.36934114 -0.17653674 -0.23385562
0.11219406 0.2787924 -0.19957314 0.19559 0.108114 -0.17746823 0.08845492 -0.16422185
00000000: 96fb 9fbc c580 6dbe c1c4 72be 3b85 8b3e
00000010: 3081 6dbe 481a bdbe 0cc6 34be d977 6fbe
00000020: 00c6 e53d e1bd 8e3e e75c 4cbe bf48 483e
00000030: df6a dd3d 3bba 35be da27 b53d c629 28be

sequential/dense/MatMul/ReadVariableOp/transpose f4 [16, 224]
-0.052090768 0.14595555 -0.37727067 0.17565247 -0.014892361 0.25486892 0.09346165 -0.020806538
-0.27355126 0.27364615 -0.3199996 -0.025923496 0.5128786 0.170105 -0.03394271 -0.11328365
0.2586713 -0.49904326 -0.37208053 0.11232782 0.11366441 -0.11508456 -0.21487704 -0.17266224
-0.07276054 0.26460087 -0.25121105 0.02412862 -0.03098752 0.12766719 -0.1942503 -0.40554565
-0.024446694 -0.3651811 -0.4368374 -0.09222876 0.037867073 -0.19630733 -0.23369236 -0.128535
0.1649421 0.311484 -0.05308328 -0.014067026 0.24542609 0.12300269 -0.5450223 -0.229716
-0.17885037 -0.39986333 0.08287536 -0.0052700844 0.0052166563 0.07258782 -0.12912937 -0.011828081
0.21141303 0.05051011 -0.048620354 -0.005512964 0.07075894 0.30768266 -0.18194453 -0.08603108
-0.106513955 -0.025352668 -0.11996538 0.00052527554 -0.026546773 0.111576006 -0.19160852 -0.32784447
-0.093205556 0.2115589 -0.119100116 0.051669523 0.40899864 -0.11602358 -0.19368812 -0.29608378
-0.14663897 -0.1590523 0.24683958 0.2024006 0.0028850653 0.03740001 0.011676849 -0.25135282
-0.114645325 0.07723469 -0.23991743 -0.0328318 0.1715877 -0.19402063 -0.083322205 -0.25613183
0.03380368 0.035410535 0.21782024 0.06677708 -0.07027841 0.19344185 0.051214278 0.07135205
0.11035872 0.06658019 -0.031609185 -0.056058053 0.28236267 -0.3300796 -0.0030876638 -0.41952434
-0.049775794 -0.026301032 0.23916782 0.030038878 -0.113671206 0.09375401 -0.23934224 0.09043874
-0.03811804 0.06825059 -0.1915049 -0.114897616 0.37334162 -0.2329709 -0.15839595 -0.012107694
-0.18367495 0.044698868 -0.057174355 0.35313803 -0.02051253 0.041741766 -0.16631767 0.10146294
0.030376563 0.23326047 -0.31009576 -0.27262947 0.4830967 -0.14417316 0.15561493 0.079648
0.1269959 -0.25728786 -0.045414563 0.4214093 0.030007498 -0.05048813 -0.24847697 -0.33599424
0.049582243 0.29003572 -0.28321216 0.16578612 0.43612435 0.050107133 -0.06347487 0.48701227
-0.10660364 -0.01758812 -0.2425188 0.19105983 0.12579398 -0.21054755 -0.24825484 0.045095317
0.092935115 0.17719902 -0.17721485 0.13972256 0.26383486 0.032060035 -0.4996453 -0.031230766
-0.22256143 -0.102148816 -0.28130382 0.34262514 0.18601605 -0.17172006 -0.16152738 -0.33174253
-0.04753466 0.018262748 -0.18644656 0.11519147 0.35355893 -0.4774444 -0.22663097 0.19720548
-0.011309779 0.095235996 0.010532727 0.36075848 0.09403077 -0.007985677 -0.101148315 -0.16986628
-0.25114638 0.10856782 -0.15579422 0.17853595 0.40274844 -0.063072145 -0.052168097 0.00039029
0.13420863 0.041289903 0.20782872 -0.046390917 0.094401225 -0.16985974 0.099298194 -0.18136947
0.37140757 0.1831372 -0.022084076 0.031480502 0.25672534 -0.14568917 0.171471 -0.15154052
-0.042396847 -0.09646202 -0.10442583 -0.12911381 -0.09407138 -0.090557486 0.107659645 -0.18189535
-0.16030058 -0.028990073 -0.15757252 -0.100231454 -0.07708277 0.026236337 -0.04591723 -0.06848686
-0.049899768 0.05298768 -0.1390565 0.052661493 -0.14837153 0.085617475 0.09321905 -0.10805069
0.0037479487 -0.059259143 -0.18993673 -0.024633339 0.10797578 -0.09642237 -0.2065896 -0.0816918
00000000: 215d 55bd 5f75 153e 9f29 c1be 3ede 333e
00000010: 17ff 73bc 2e7e 823e d268 bf3d 7972 aabc
00000020: e90e 8cbe 591b 8c3e fdd6 a3be 835d d4bc
00000030: 034c 033f 0130 2e3e 8307 0bbd 4201 e8bd
00000040: 9170 843e 9982 ffbe 5781 bebe 210c e63d
00000050: e3c8 e83d 74b1 ebbd ba08 5cbe 5fce 30be
00000060: 7a03 95bd c479 873e bc9e 80be 62a9 c53c
00000070: 8ad9 fdbc 30bb 023e 8de9 46be aea3 cfbe
00000080: 6f44 c8bc 04f9 babe 27a9 dfbe 6fe2 bcbd
00000090: 811a 1b3d ca04 49be 0d4d 6fbe ae9e 03be
000000a0: 95e6 283e d57a 9f3e da6d 59bd 6279 66bc
000000b0: fa50 7b3e d6e8 fb3d 9586 0bbf ac3a 6bbe
000000c0: 8d24 37be e3ba ccbe 8fba a93d acb0 acbb
000000d0: 7cf0 aa3b eca8 943d 7d3a 04be 91ca 41bc
000000e0: a87c 583e b0e3 4e3d 2326 47bd 18a6 b4bb
000000f0: 10ea 903d 9588 9d3e ab4f 3abe 1031 b0bd
00000100: fd23 dabd 66b0 cfbc 69b0 f5bd a5b2 093a
00000110: 9e78 d9bc f681 e43d 0635 44be 3bdb a7be
00000120: 8ee2 bebd e5a2 583e c3ea f3bd 6ca3 533d
00000130: 4568 d13e c59d edbd 2e56 46be 4b98 97be
00000140: 8728 16be 9bde 22be 84c3 7c3e 1a42 4f3e
00000150: 5d13 3d3b c130 193d 4150 3f3c 51b1 80be
00000160: 2bcb eabd 392d 9e3d eaac 75be a37a 06bd
00000170: b0b4 2f3e 58ad 46be d5a4 aabd b623 83be
00000180: ba75 0a3d a30a 113d 450c 5f3e 6cc2 883d
00000190: 21ee 8fbd 9f15 463e 10c6 513d 0621 923d
000001a0: c103 e23d 325b 883d a278 01bd 219d 65bd
000001b0: d791 903e 3100 a9be 675a 4abb e5cb d6be
000001c0: b4e1 4bbd 4375 d7bc 69e8 743e 1814 f63c
000001d0: 73cc e8bd 1a02 c03d 2216 75be f237 b93d
000001e0: a921 1cbd f7c6 8b3d dc19 44be 714f ebbd
000001f0: a226 bf3e ec8f 6ebe 8c32 22be 595f 46bc
00000200: 4915 3cbe 2916 373d a82f 6abd 82ce b43e
00000210: e509 a8bc 6af9 2a3d 2e4f 2abe cdcb cf3d
00000220: 45d8 f83c d5db 6e3e dfc4 9ebe 1796 8bbe
00000230: 7358 f73e 21a2 13be 8559 1f3e 7e1e a33d
00000240: 370b 023e 3cbb 83be 9f04 3abd f6c2 d73e
00000250: 49d2 f53c a4cc 4ebd bf70 7ebe 7007 acbe
00000260: c016 4b3d 907f 943e 2f01 91be d6c3 293e
00000270: b14b df3e 233d 4d3d 1dff 81bd ac59 f93e
00000280: 0253 dabd f614 90bc d956 78be 30a5 433e
00000290: 23d0 003e c799 57be 8436 7ebe deb5 383d
000002a0: c454 be3d a973 353e cf77 35be 6e13 0f3e
000002b0: 5d15 873e 6251 033d 82d1 ffbe aad7 ffbc
000002c0: 25e7 63be 6633 d1bd 0e07 90be 906c af3e
000002d0: fe7a 3e3e 62d7 2fbe 6f67 25be 28da a9be
000002e0: b4b3 42bd c29b 953c d9eb 3ebe 81e9 eb3d
000002f0: ad05 b53e 9873 f4be f311 68be 3cf0 493e
00000300: a74c 39bc 170b c33d 7691 2c3c 56b5 b83e
00000310: 3493 c03d 5bd6 02bc d926 cfbd 6df1 2dbe
00000320: 4296 80be ce58 de3d 8588 1fbe 21d2 363e
00000330: 0b35 ce3e f82b 81bd 37ae 55bd d69f cc39
00000340: fd6d 093e 9a1f 293d 0dd1 543e 6704 3ebd
00000350: 6e55 c13d b6ef 2dbe da5c cb3d ebb8 39be
00000360: 2229 be3e 5188 3b3e aae9 b4bc b3f1 003d
00000370: 8171 833e 8b2f 15be 1896 2f3e 702d 1bbe
00000380: 51a8 2dbd e18d c5bd 36dd d5bd 6936 04be
00000390: 7fa8 c0bd 3476 b9bd a97c dc3d c642 3abe
000003a0: d625 24be 977c edbc b15a 21be 2646 cdbd
000003b0: 92dd 9dbd 96ed d63c b513 3cbd d742 8cbd
000003c0: b363 4cbd 9c09 593d d464 0ebe 94b3 573d
000003d0: b5ee 17be 3758 af3d a1e9 be3d ae49 ddbd
000003e0: 25a0 753b b7b9 72bd c67e 42be dbcb c9bc
000003f0: 6822 dd3d 1779 c5bd 398c 53be 084e a7bd

sequential/dense/MatMul_bias f4 [16]
0.2887157 -0.18471275 -0.7628133 -0.4966457 -1.0338999 0.64618385 0.013704858 -0.07530418
-0.942576 -0.22850214 -0.053682547 -0.25068069 -0.7354089 0.9265822 -0.90990597 0.6737998
00000000: 8bd2 933e 5725 3dbe bc47 43bf 5848 febe
00000010: d556 84bf 4e6c 253f 578a 603c 1439 9abd
00000020: a94c 71bf 77fc 69be 3be2 5bbd 3859 80be
00000030: c243 3cbf 7e34 6d3f 99ef 68bf 257e 2c3f

sequential/dense_1/MatMul/ReadVariableOp/transpose f4 [4, 16]
-0.34808138 0.1702649 -0.060393807 0.4208383 0.32980093 0.072022244 0.26965687 -0.17898417
-0.17182401 0.12794577 -0.06867995 0.24043909 -0.062394653 -0.10356818 -0.1954702 0.40154946
-0.3511952 -0.4801575 -0.103850834 0.4613579 0.29363832 0.05951461 -0.1917309 -0.14674455
-0.23154116 -0.4798127 0.107710555 -0.042186324 -0.07449951 -0.1766887 -0.23508574 0.38040817
-0.6454033 -0.48204872 -0.35467333 -1.3819797 -0.22415943 0.081236914 0.27434546 -0.2698702
-0.3825043 0.20812644 0.20176932 0.2608844 -1.2811673 -0.21711922 -1.0575017 0.03841913
-0.28111467 0.26512015 -0.11492436 0.43704674 0.29674497 0.11021691 0.31925237 -0.1770565
-0.23774044 0.15115692 0.11955191 0.30903715 -0.106390454 -0.02829993 -0.24568939 0.43058547
00000000: b937 b2be ec59 2e3e 7f5f 77bd 1e78 d73e
00000010: abdb a83e 6680 933d 7710 8a3e a047 37be
00000020: a2f2 2fbe 3704 033e 13a8 8cbd aa35 763e
00000030: 8991 7fbd 8e1b d4bd 5729 48be e497 cd3e
00000040: dbcf b3be 34d7 f5be bfaf d4bd 1a37 ec3e
00000050: c357 963e 97c5 733d 1b55 44be 3444 16be
00000060: 2019 6dbe 03aa f5be 5a97 dc3d 91cb 2cbd
00000070: 3393 98bd e2ed 34be 51ba 70be dcc4 c23e
00000080: 2739 25bf 17cf f6be be97 b5be b6e4 b0bf
00000090: 0d8a 65be 8a5f a63d 0277 8c3e 6d2c 8abe
000000a0: 9bd7 c3be 191f 553e 9e9c 4e3e a492 853e
000000b0: 4afd a3bf 8054 5ebe 375c 87bf 615d 1d3d
000000c0: 43ee 8fbe d4bd 873e 765d ebbd 97c4 df3e
000000d0: f5ee 973e 67b9 e13d 0c75 a33e 4d4e 35be
000000e0: 3b72 73be e1c8 1a3e a2d7 f43d 1e3a 9e3e
000000f0: 3de3 d9bd 41d5 e7bc 0096 7bbe b375 dc3e

sequential/dense_1/MatMul_bias f4 [4]
-2.0060422 -0.39705634 -1.0516261 1.4381604
00000000: ff62 00c0 f84a cbbe af9b 86bf a415 b83f
