train/model_quantized.tflite (tflite, 8824 bytes, 8 tensors)

sequential/conv2d/Conv2D/ReadVariableOp f4 [1, 4, 3, 8]
0	0xbd6c99ab	-0.057763737
1	0x3ec3dfe0	0.3825674
2	0xbd211f7f	-0.039336678
3	0xbcd334ba	-0.025781978
4	0x3ec95f92	0.39330727
5	0x3e623d6f	0.22093748
6	0x3dfef669	0.12449343
7	0x3ce49f0c	0.02790787
8	0xbeaef4e8	-0.34171224
9	0xbcabe73f	-0.02098429
10	0xbdd67dae	-0.1047319
11	0x3d82f296	0.06393926
12	0xbdf5bf22	-0.11999346
13	0xbe7e8e57	-0.24858986
14	0x3cd455b6	0.025919776
15	0x3d815165	0.06314353
16	0x3eb7eae6	0.359214
17	0xbed5b888	-0.4174235
18	0x3e6280a7	0.2211939
19	0x3d678b7a	0.0565295
20	0xbc0e75be	-0.008695064
21	0xbd9abb2d	-0.07555232
22	0xbd9e38a6	-0.077256486
23	0xbea2fe87	-0.31834814
24	0x3d2e58f6	0.04256531
25	0x3df229de	0.11824392
26	0x3d11d4a6	0.035603188
27	0x3eacd1e0	0.33753872
28	0x3e8d799e	0.2763185
29	0xbbe03f3d	-0.006843476
30	0x3e089ea0	0.1334176
31	0xbd52cf37	-0.051467147
32	0xbea08fa9	-0.31359604
33	0xbd7f63ef	-0.062351163
34	0x3da8c2e0	0.082402945
35	0xbe27752c	-0.16353291
36	0x3cd8e8af	0.02647814
37	0xbde93476	-0.11386959
38	0x3c8bb10b	0.017052194
39	0xbd3d40f8	-0.046204537
40	0x3e1a9c64	0.15098721
41	0xbdef47c7	-0.11683612
42	0x3e33589e	0.17514274
43	0xbea5dd50	-0.3239541
44	0x3d789808	0.060691863
45	0x3da4c139	0.08044667
46	0xba9f38cb	-0.0012147663
47	0x3e5554f7	0.20833193
48	0xbe070ca6	-0.13188419
49	0xbe4ae855	-0.1981519
50	0xbb661346	-0.0035106703
51	0x3dc3d5c9	0.09562261
52	0x3ec5c177	0.38624164
53	0x3d5c33ba	0.053760268
54	0x3e199b81	0.15000726
55	0xb9c4c40d	-0.00037530102
56	0x3e161caa	0.14659372
57	0x3e27451b	0.16334955
58	0xbe577188	-0.21039402
59	0xbe18e29f	-0.14930199
60	0xbd9151cc	-0.0709568
61	0xbe81e150	-0.25367212
62	0x3d0a82b3	0.03381605
63	0x3bb06e59	0.005384248
64	0xbeaa9bf0	-0.33322096
65	0xbd1ddc1e	-0.03854
66	0x3e21141e	0.1573033
67	0xbe6f2a0e	-0.23355886
68	0xbbe7eded	-0.0070779235
69	0xbe4c82ff	-0.19971846
70	0xbe82df56	-0.25561017
71	0x3e34869c	0.17629474
72	0xbd312a8f	-0.043253478
73	0xbedf9644	-0.4366933
74	0x3b155b0c	0.0022789864
75	0xbd25161b	-0.040304285
76	0x3e78301d	0.24237104
77	0x3da92f10	0.082609296
78	0x3dbf5183	0.09341719
79	0xbd9af85e	-0.075669035
80	0x3ee14c35	0.44003454
81	0xbd863139	-0.06552357
82	0xbdd5da08	-0.10441977
83	0x3c451a3d	0.0120301815
84	0x3bf1a1b7	0.0073740142
85	0xbea2ae31	-0.31773522
86	0x3ddf6efb	0.1090984
87	0xbd0d496d	-0.034493852
88	0xbec87ed6	-0.39159268
89	0xbeb6bc84	-0.356907
90	0x3c9bae3e	0.019003984
91	0xbe50a35e	-0.2037482
92	0xbcca91a3	-0.024727648
93	0x3c1a250a	0.009408245
94	0xbe41323f	-0.18866824
95	0x3e8d100d	0.27551308

sequential/conv2d/Conv2D_bias f4 [8]
0	0xbe683ec9	-0.226802
1	0xbe58493f	-0.21121691
2	0xc01ab653	-2.4173782
3	0x3d612468	0.05496636
4	0xbf7306e0	-0.94932365
5	0xbedadcb7	-0.42746517
6	0xbfa0a310	-1.2549763
7	0xc0196284	-2.396638

sequential/conv2d_1/Conv2D/ReadVariableOp f4 [16, 4, 1, 8]
0	0xbe16972e	-0.14706108
1	0xbe09b1a5	-0.13446672
2	0xbddcf221	-0.1078837
3	0xbe85f80d	-0.2616581
4	0xbe3ee001	-0.18640138
5	0x3dac5105	0.08413891
6	0x3e5584a0	0.20851374
7	0xbca532b1	-0.020165773
8	0x3dad0539	0.08448262
9	0x3e98395f	0.2973127
10	0xbd88ace0	-0.06673598
11	0x3e862aec	0.26204622
12	0xbe9b4cc4	-0.30332005
13	0x3d3d9434	0.046283916
14	0xbddc57af	-0.10758912
15	0x3ef826bf	0.4846706
16	0xbd90439a	-0.07044144
17	0x3db87b99	0.090079494
18	0xbd411a2b	-0.047144096
19	0x3e9267e5	0.2859489
20	0xbe9bb590	-0.3041196
21	0xbd31b8bd	-0.04338907
22	0xbd3354da	-0.043782093
23	0xbddf0d59	-0.10891218
24	0x3d346191	0.04403836
25	0xbdc462d2	-0.09589161
26	0xbe054909	-0.13016142
27	0xbda0cb59	-0.078512855
28	0xbe9057a0	-0.28191853
29	0x3ebe72f5	0.3719708
30	0xbe4028ef	-0.18765615
31	0xbc8e80f9	-0.017395483
32	0x3f2945ae	0.6612195
33	0xbd521a78	-0.051294774
34	0xbe73905d	-0.23785539
35	0xbc1af063	-0.009456727
36	0xbe9c80ca	-0.30567008
37	0xbd88585c	-0.06657478
38	0xbeb294fa	-0.34879285
39	0xbdf8c700	-0.12147331
40	0x3e9eb82a	0.3099988
41	0x3d281114	0.041031912
42	0xbcf52cab	-0.029928526
43	0x3e53cfd0	0.20684743
44	0xbddfed10	-0.10933888
45	0xbd97b44f	-0.07407438
46	0xbe48fbee	-0.19627354
47	0x3dfb17c0	0.12260389
48	0x3cf9f142	0.030510549
49	0x3d4514e7	0.048115637
50	0x3d7193ed	0.058978964
51	0xbc6d3b70	-0.014479503
52	0x3d45f697	0.04833087
53	0xbdd28e77	-0.10281079
54	0xbca5d1fb	-0.020241728
55	0x3e111334	0.14167482
56	0x3dbbb0f5	0.09164611
57	0xbd5d5e1c	-0.054044828
58	0x3e9da762	0.30791765
59	0x3cd27d73	0.025694584
60	0x3e2d0acc	0.1689865
61	0xbdbd63cb	-0.092475496
62	0xbd8a7cb4	-0.067620665
63	0xbdca9be8	-0.09893018
64	0x3e047fd5	0.12939389
65	0xbdb73b6d	-0.089468814
66	0xbe5f78b2	-0.21823385
67	0x3e656c8d	0.2240469
68	0xbdbf80ef	-0.09350764
69	0x3e46bf6b	0.19408958
70	0xbe9da508	-0.3078997
71	0xbf2857d5	-0.6575902
72	0x3e9154de	0.2838506
73	0xbe8617be	-0.2618999
74	0xbebd1635	-0.36931005
75	0x3db91ffe	0.09039305
76	0x3d3ed856	0.046593033
77	0xbcfab6b9	-0.030604707
78	0xbcc55dfb	-0.024092665
79	0xbe42bab0	-0.19016528
80	0x3ec1d93f	0.37861058
81	0xbf200c64	-0.62518907
82	0xbe7647ae	-0.24050781
83	0xbf0ccb1c	-0.5499742
84	0x3e434a9e	0.19071433
85	0xbec60e96	-0.38683003
86	0xbcc76269	-0.024338918
87	0x3e4bd18a	0.19904152
88	0x3e917932	0.28412777
89	0xbe406969	-0.18790211
90	0x3e45a54c	0.19301337
91	0xbf0cc4e5	-0.5498794
92	0xbd67d710	-0.056601584
93	0xbe9ab2e8	-0.3021462
94	0x3ea9346a	0.330478
95	0x3e85ebfd	0.26156607
96	0xbf052e9a	-0.52024233
97	0xbf1c8e6a	-0.61154807
98	0x3e920e02	0.28526312
99	0xbeacddab	-0.3376287
100	0xbe2b161d	-0.16707654
101	0xbe097779	-0.13424481
102	0xbe59abed	-0.2125699
103	0xbdebe23f	-0.115177624
104	0xbb969bd3	-0.0045962124
105	0xbe4a5763	-0.19759898
106	0x3ddf9f09	0.109190054
107	0xbee68f68	-0.45031285
108	0xbe59ddb9	-0.21275987
109	0xbd0a3d17	-0.033749666
110	0xbe52aaba	-0.2057294
111	0x3e44a825	0.19204767
112	0xbe716201	-0.23572542
113	0xbe974ba0	-0.29549885
114	0xbd3a8d28	-0.045544773
115	0xbeee33bc	-0.46523845
116	0xbe844073	-0.2583042
117	0xbecaf631	-0.39640954
118	0xbe29e580	-0.16591454
119	0x3bccf9e5	0.0062553757
120	0xbeeb7bb5	-0.45992818
121	0xbf428b6b	-0.75993985
122	0x3dd33f36	0.10314791
123	0xbeb439d6	-0.35200375
124	0xbde30ea5	-0.110867776
125	0xbe9d8dce	-0.3077225
126	0x3e2b2779	0.16714276
127	0x3e049633	0.12947921
128	0xbbf67917	-0.0075217593
129	0x3f09cd04	0.53828454
130	0x3de5427f	0.11194324
131	0x3d68b15f	0.05680978
132	0x3e22df57	0.1590551
133	0xbc0995a5	-0.008397494
134	0xbdd39f8c	-0.103331655
135	0xbe828dfa	-0.25498945
136	0xbdac8b9d	-0.084250666
137	0xbf0d5250	-0.55203724
138	0xbe187295	-0.1488746
139	0x3bab5cb5	0.0052295574
140	0x3df2c84a	0.11854608
141	0xbd2ee921	-0.042702798
142	0x3e9c83d8	0.3056934
143	0xbea67065	-0.32507625
144	0xbe2011c6	-0.1563178
145	0xbee64c8f	-0.44980285
146	0xbc520e4a	-0.01282079
147	0xbecc0ea0	-0.39854908
148	0xbe2892dd	-0.16462274
149	0xbe70c1ad	-0.23511381
150	0xbea5dfda	-0.32397348
151	0x3d126cf8	0.035748452
152	0x3e0de243	0.13855843
153	0xbe907679	-0.28215387
154	0x3db2eea3	0.087369226
155	0x3e686868	0.22696078
156	0xbea630ea	-0.32459193
157	0xbddb96f6	-0.10722153
158	0xbd7a57cd	-0.06111889
159	0xbdc8babc	-0.09801242
160	0xbe57d6dc	-0.21078056
161	0xbe8f94fd	-0.28043357
162	0xbd0518d8	-0.032494396
163	0xbf076eb7	-0.5290331
164	0xbd45c047	-0.048279073
165	0xbf3b8924	-0.73256135
166	0x3c1e62b6	0.009667089
167	0x3e25e994	0.16202384
168	0x3dc906d0	0.098157525
169	0x3d9ac812	0.07557692
170	0x3f241831	0.64099413
171	0x3d5b16ff	0.053488728
172	0xbe0debea	-0.13859525
173	0xbd7c5fb2	-0.0616147
174	0xbe835d69	-0.25657204
175	0x3e3fdab1	0.18735768
176	0x3ec77d21	0.38962653
177	0xbd5f8972	-0.054574437
178	0x3ddb242a	0.10700257
179	0x3e20b5ef	0.15694402
180	0xbe7d01a5	-0.24707659
181	0xbc360515	-0.01110961
182	0xbeb42c9a	-0.35190278
183	0xbe8c43cf	-0.27395484
184	0x3f090c47	0.5353436
185	0xbe12df33	-0.14342956
186	0xbe485726	-0.19564494
187	0x3d9afa19	0.075672336
188	0xbe0fdf3e	-0.14050004
189	0x3da3f553	0.08005776
190	0xbe9f926d	-0.31166402
191	0xbe828490	-0.25491762
192	0xbd0ec782	-0.034858234
193	0xbd7a2921	-0.06107438
194	0x3efc0c41	0.492281
195	0x3d7431ee	0.05961793
196	0x3be871b5	0.007093633
197	0xbd82082f	-0.06349217
198	0x3e7adf29	0.24499191
199	0x3e006dac	0.12541837
200	0x3ea43cd4	0.32077658
201	0x3e734ee3	0.23760562
202	0x3de46e15	0.11153809
203	0x3d5bca1f	0.053659555
204	0xbb44f440	-0.003005281
205	0xbe25493b	-0.16141216
206	0x3ebd3897	0.36957237
207	0xbd9b809e	-0.07592891
208	0xbe006291	-0.125376
209	0xbe531ca9	-0.20616402
210	0xbe6e3edb	-0.23266165
211	0xbe83d21b	-0.25746235
212	0xbc2bb983	-0.010481241
213	0xbe89e1c9	-0.26930073
214	0xbe2571b4	-0.16156656
215	0xbef35ce4	-0.47531807
216	0x3e03e0d7	0.12878738
217	0xbcba3808	-0.022731796
218	0xbe98875b	-0.29790768
219	0x3c285415	0.010273953
220	0xbe57ff62	-0.21093515
221	0xbd814fd8	-0.06314057
222	0xbed971c2	-0.42469603
223	0xbeafc2fa	-0.34328443
224	0xbda54bf5	-0.08071128
225	0x3d2f200f	0.042755183
226	0xbe1d6b78	-0.15373027
227	0xbe6dda0c	-0.2322771
228	0xbdbf7c46	-0.09349875
229	0xbd84c01d	-0.06481955
230	0x3d112293	0.035433363
231	0xbe0965e7	-0.13417779
232	0xbe6e0a3e	-0.23246095
233	0x3ceef0ff	0.02916765
234	0xbc4ce112	-0.012504833
235	0xbe122dea	-0.14275327
236	0xbe3de13e	-0.18542954
237	0xbcb46a61	-0.022023382
238	0xbeacc69c	-0.33745277
239	0xbd5b97ac	-0.053611442
240	0xbdd07d45	-0.10180143
241	0x3cd45a02	0.025921825
242	0xbe7eaba5	-0.24870165
243	0x3c71321e	0.0147214215
244	0xbe7b2c8d	-0.24528714
245	0xbc5ab7a8	-0.013349451
246	0xbe95dc9e	-0.2926988
247	0xbd612f88	-0.05497697
248	0xbe590f1a	-0.21197167
249	0x3df4c49b	0.11951562
250	0xbbe88426	-0.0070958314
251	0xbe0d2a56	-0.13785681
252	0xbe07c56d	-0.13258906
253	0xbe2af21e	-0.16693923
254	0xbd6d61f6	-0.05795475
255	0xbda14355	-0.07874171

sequential/conv2d_1/Conv2D_bias f4 [16]
0	0x3c7037e6	0.014661765
1	0xbdda772d	-0.10667262
2	0x3d86ad3c	0.065760106
3	0x3e33fb0a	0.17576233
4	0xbecdc325	-0.40187946
5	0xbe558868	-0.20852816
6	0xbed562c4	-0.41676915
7	0xbe46f38c	-0.19428843
8	0xbe39a7b8	-0.18130386
9	0x3eaad3a6	0.333646
10	0x3ca4ecc7	0.020132435
11	0x3d9b4554	0.07581583
12	0xbe89b967	-0.26899263
13	0xbcebc966	-0.028782558
14	0x3ca70ad9	0.020390915
15	0x3da01bbf	0.07817792

sequential/dense/MatMul/ReadVariableOp/transpose i1 [16, 224] scale=0.009340754 zero_point=0
0	0xec	-0.18681508
1	0xf7	-0.084066786
2	0xdc	-0.33626714
3	0x41	0.607149
4	0x00	0.0
5	0xd1	-0.43901542
6	0x24	0.33626714
7	0xf3	-0.1214298
8	0xcb	-0.49505994
9	0xe9	-0.21483734
10	0x04	0.037363015
11	0xf4	-0.112089045
12	0x13	0.17747432
13	0xf8	-0.07472603
14	0x07	0.065385275
15	0xf4	-0.112089045
16	0xee	-0.16813357
17	0x08	0.07472603
18	0xd9	-0.3642894
19	0x17	0.21483734
20	0x16	0.20549658
21	0xd4	-0.41099316
22	0x10	0.14945206
23	0xfb	-0.04670377
24	0xfb	-0.04670377
25	0x02	0.018681508
26	0xf8	-0.07472603
27	0xc3	-0.56978595
28	0x1c	0.2615411
29	0x04	0.037363015
30	0x04	0.037363015
31	0xf1	-0.14011131
32	0xf0	-0.14945206
33	0x11	0.15879281
34	0xe4	-0.2615411
35	0x12	0.16813357
36	0x16	0.20549658
37	0xcb	-0.49505994
38	0xfc	-0.037363015
39	0x08	0.07472603
40	0xfd	-0.028022261
41	0x21	0.30824488
42	0x05	0.04670377
43	0xf8	-0.07472603
44	0x25	0.34560788
45	0x12	0.16813357
46	0xfb	-0.04670377
47	0xf7	-0.084066786
48	0xed	-0.17747432
49	0x04	0.037363015
50	0xe8	-0.22417809
51	0x0b	0.10274829
52	0x14	0.18681508
53	0xe9	-0.21483734
54	0x12	0.16813357
55	0xf3	-0.1214298
56	0xf0	-0.14945206
57	0x19	0.23351884
58	0xfb	-0.04670377
59	0x16	0.20549658
60	0x2f	0.43901542
61	0x18	0.22417809
62	0xf2	-0.13077055
63	0x03	0.028022261
64	0x0a	0.09340754
65	0x00	0.0
66	0xb9	-0.6631935
67	0x19	0.23351884
68	0x1b	0.25220037
69	0xe8	-0.22417809
70	0x11	0.15879281
71	0xf0	-0.14945206
72	0xf2	-0.13077055
73	0x0f	0.14011131
74	0xf1	-0.14011131
75	0x28	0.37363017
76	0x1d	0.27088186
77	0x0d	0.1214298
78	0xed	-0.17747432
79	0x05	0.04670377
80	0x03	0.028022261
81	0x0b	0.10274829
82	0xd8	-0.37363017
83	0x36	0.50440073
84	0x10	0.14945206
85	0xd6	-0.39231166
86	0x0c	0.112089045
87	0xef	-0.15879281
88	0xfd	-0.028022261
89	0x19	0.23351884
90	0xf1	-0.14011131
91	0x19	0.23351884
92	0x30	0.44835618
93	0xfa	-0.056044523
94	0x09	0.084066786
95	0x0b	0.10274829
96	0x07	0.065385275
97	0xe9	-0.21483734
98	0xda	-0.35494864
99	0x20	0.29890412
100	0x23	0.32692638
101	0xd7	-0.3829709
102	0x10	0.14945206
103	0xff	-0.009340754
104	0xd4	-0.41099316
105	0xfb	-0.04670377
106	0xff	-0.009340754
107	0x1b	0.25220037
108	0x16	0.20549658
109	0xe4	-0.2615411
110	0x09	0.084066786
111	0x08	0.07472603
112	0x06	0.056044523
113	0xe3	-0.27088186
114	0xec	-0.18681508
115	0x17	0.21483734
116	0x06	0.056044523
117	0xc1	-0.5884675
118	0x0b	0.10274829
119	0xf0	-0.14945206
120	0xf2	-0.13077055
121	0x10	0.14945206
122	0x01	0.009340754
123	0x06	0.056044523
124	0x0f	0.14011131
125	0xe4	-0.2615411
126	0x07	0.065385275
127	0x0d	0.1214298
128	0x07	0.065385275
129	0xc8	-0.5230822
130	0xd5	-0.40165243
131	0x01	0.009340754
132	0x03	0.028022261
133	0xe8	-0.22417809
134	0xe9	-0.21483734
135	0xfc	-0.037363015
136	0xe5	-0.25220037
137	0xee	-0.16813357
138	0x03	0.028022261
139	0xe8	-0.22417809
140	0xf2	-0.13077055
141	0x00	0.0
142	0x04	0.037363015
143	0xf0	-0.14945206
144	0x0b	0.10274829
145	0xeb	-0.19615583
146	0xff	-0.009340754
147	0x13	0.17747432
148	0x12	0.16813357
149	0xdb	-0.34560788
150	0xb7	-0.68187505
151	0xea	-0.20549658
152	0xf6	-0.09340754
153	0xf9	-0.065385275
154	0xf8	-0.07472603
155	0xc6	-0.5417637
156	0xe4	-0.2615411
157	0xf4	-0.112089045
158	0x05	0.04670377
159	0xe2	-0.28022262
160	0x07	0.065385275
161	0xb8	-0.6725343
162	0xdd	-0.32692638
163	0x03	0.028022261
164	0xfe	-0.018681508
165	0xde	-0.31758562
166	0xe1	-0.28956336
167	0xf7	-0.084066786
168	0xf8	-0.07472603
169	0xfe	-0.018681508
170	0xfe	-0.018681508
171	0xca	-0.50440073
172	0xca	-0.50440073
173	0x11	0.15879281
174	0x02	0.018681508
175	0xf7	-0.084066786
176	0x03	0.028022261
177	0xdf	-0.30824488
178	0x03	0.028022261
179	0x14	0.18681508
180	0x15	0.19615583
181	0x06	0.056044523
182	0xe1	-0.28956336
183	0xfa	-0.056044523
184	0xf5	-0.10274829
185	0xfd	-0.028022261
186	0x01	0.009340754
187	0xc3	-0.56978595
188	0xef	-0.15879281
189	0x00	0.0
190	0x0b	0.10274829
191	0xdd	-0.32692638
192	0xfc	-0.037363015
193	0xdb	-0.34560788
194	0xfd	-0.028022261
195	0x0f	0.14011131
196	0xfb	-0.04670377
197	0x0a	0.09340754
198	0xe2	-0.28022262
199	0x05	0.04670377
200	0x14	0.18681508
201	0xed	-0.17747432
202	0x03	0.028022261
203	0xe5	-0.25220037
204	0xea	-0.20549658
205	0xfa	-0.056044523
206	0xfb	-0.04670377
207	0xf7	-0.084066786
208	0xfb	-0.04670377
209	0xda	-0.35494864
210	0xeb	-0.19615583
211	0x0f	0.14011131
212	0xeb	-0.19615583
213	0x03	0.028022261
214	0xee	-0.16813357
215	0xf7	-0.084066786
216	0x12	0.16813357
217	0x06	0.056044523
218	0x00	0.0
219	0xdf	-0.30824488
220	0xea	-0.20549658
221	0xf2	-0.13077055
222	0xfb	-0.04670377
223	0xd6	-0.39231166
224	0xd6	-0.39231166
225	0xee	-0.16813357
226	0x1c	0.2615411
227	0xf5	-0.10274829
228	0x0d	0.1214298
229	0xe3	-0.27088186
230	0xf2	-0.13077055
231	0xed	-0.17747432
232	0x18	0.22417809
233	0xe4	-0.2615411
234	0xf7	-0.084066786
235	0xe1	-0.28956336
236	0xff	-0.009340754
237	0xe9	-0.21483734
238	0x01	0.009340754
239	0xee	-0.16813357
240	0xdd	-0.32692638
241	0x15	0.19615583
242	0x20	0.29890412
243	0x05	0.04670377
244	0xfc	-0.037363015
245	0x20	0.29890412
246	0x14	0.18681508
247	0xf0	-0.14945206
248	0x22	0.31758562
249	0x16	0.20549658
250	0x03	0.028022261
251	0x08	0.07472603
252	0x0a	0.09340754
253	0xf3	-0.1214298
254	0xf3	-0.1214298
255	0x09	0.084066786

sequential/dense/MatMul_bias f4 [16]
0	0xbec94bf7	-0.3931577
1	0xbf26e580	-0.6519394
2	0xbf0b1b93	-0.5433895
3	0xbf0d195c	-0.5511682
4	0xbf463695	-0.77427036
5	0xbe21c06d	-0.15796061
6	0xbe0f6a8b	-0.14005487
7	0x3e28f64a	0.16500202
8	0xbeec0070	-0.46094084
9	0x3f8e5838	1.1120672
10	0xbe0c4e8a	-0.13701835
11	0xbe2b0ecd	-0.16704865
12	0xbf365f58	-0.71239233
13	0x3f8f20d2	1.1181891
14	0xbe62f5b7	-0.22164045
15	0xbdb3ea53	-0.08784928

sequential/dense_1/MatMul/ReadVariableOp/transpose f4 [4, 16]
0	0xbe5892e6	-0.21149787
1	0x3e59d6b5	0.2127331
2	0x3cb4d678	0.022074923
3	0x3ed8be33	0.4233261
4	0x3ee16b56	0.44027203
5	0x3d9c5690	0.07633698
6	0x3e2902ce	0.16504976
7	0xbf1d904f	-0.6154832
8	0xbe536d94	-0.2064727
9	0x3c9db0f1	0.019249411
10	0xbe841306	-0.25795764
11	0x3eb3810c	0.35059392
12	0xbd4fe276	-0.05075308
13	0xbd17d7e1	-0.037071113
14	0xbe843dae	-0.25828308
15	0x3edae58a	0.4275325
16	0xbe3976b2	-0.18111685
17	0x3e29239a	0.16517487
18	0xbd9b4e88	-0.07583338
19	0x3ef08421	0.46975806
20	0x3eb95139	0.3619478
21	0xbeb8ce71	-0.36095002
22	0xbf2e693c	-0.68129325
23	0xbf9f5a1d	-1.2449375
24	0xbe6b285e	-0.22964618
25	0x3d72d1d3	0.059282135
26	0xbe4a5c28	-0.19761717
27	0x3ecb5451	0.39712766
28	0xbe0594b3	-0.13045006
29	0xbd3505d5	-0.044195015
30	0xbe8dd35b	-0.27700314
31	0x3ee21b5c	0.441615
32	0xbf3b7854	-0.7323048
33	0xbf8b6798	-1.0890989
34	0xbf636755	-0.8882955
35	0xbf0ef461	-0.5584164
36	0xbf513816	-0.81726205
37	0x3dea1174	0.1142911
38	0x3da87fa7	0.08227473
39	0xbdd94ec9	-0.1061073
40	0xc01537f9	-2.3315413
41	0x3d8a7d5e	0.06762193
42	0x3ea01635	0.31266943
43	0x3e44b020	0.19207811
44	0xbf91c067	-1.1386842
45	0xbf26b61c	-0.65121627
46	0xbe9cc9cf	-0.30622718
47	0xbc1f16e8	-0.009710051
48	0xbe62d116	-0.22150072
49	0x3d60df10	0.05490023
50	0xbd99ace6	-0.07503681
51	0x3ee8e938	0.45490432
52	0xbe42ac4b	-0.19011037
53	0x3e2e9b2e	0.17051384
54	0x3e95d5a2	0.2926455
55	0xbe2b00ad	-0.16699477
56	0xbe5e599b	-0.2171387
57	0x3db14ee7	0.086576276
58	0x3e181624	0.14852196
59	0x3ec11ce2	0.37717348
60	0xbe33c8b2	-0.17557028
61	0xbca03d0f	-0.019560365
62	0xbe82faa2	-0.25581843
63	0x3edba71c	0.42900932

sequential/dense_1/MatMul_bias f4 [4]
0	0xc0337dd8	-2.804556
1	0xbfc237fb	-1.5173334
2	0xbf8ace44	-1.0844197
3	0x3e5d6c6c	0.21623391
